elite/SavedModels/mymodel_mnist_0.99.pth.tar (torch, 181179 bytes, 10 tensors)

conv1.weight f4 [6, 1, 5, 5]
0	0x3e6f244e	0.23353693
1	0x3eab3407	0.3343813
2	0x3e31964a	0.17342487
3	0x3ecd153b	0.4005526
4	0x3e8f1f65	0.2795364
5	0xbe44bae8	-0.19211924
6	0xbe685551	-0.22688796
7	0x3de82304	0.11334804
8	0xbc1e53c8	-0.00966353
9	0xbcb3ee4c	-0.021964215
10	0xbe62819e	-0.22119758
11	0xbec3d9c5	-0.38252082
12	0xbd87c445	-0.06629232
13	0xbec8cee3	-0.39220342
14	0xbe4519c2	-0.19248107
15	0x3d8cee81	0.068814285
16	0xbe1e86ff	-0.15481184
17	0xbe9358ed	-0.28778782
18	0xbe0347df	-0.12820385
19	0xbdd824e8	-0.10553914
20	0x3ccc8fe9	0.024970965
21	0xbe023f36	-0.12719426
22	0x3d50b377	0.0509524
23	0x3db3ee9e	0.08785747
24	0x3d8cb9ff	0.068714134
25	0x3e1251f2	0.14289072
26	0x3dd881bd	0.105716206
27	0xbe31a40e	-0.17347738
28	0xbe8f6b91	-0.28011754
29	0xbed81352	-0.4220224
30	0x3e3ee5cd	0.1864235
31	0xbe5c305f	-0.21502827
32	0xbec9f775	-0.39446607
33	0xbedd4c18	-0.43222117
34	0xbe8ea603	-0.27861032
35	0xbe7cdcbc	-0.24693578
36	0xbed922fe	-0.4240951
37	0xbebf5208	-0.37367272
38	0xbebe450f	-0.37162063
39	0x3d2f0b71	0.04273552
40	0xbe62a334	-0.2213257
41	0xbe8a0675	-0.2695805
42	0xbe282274	-0.16419393
43	0x3e2cf79d	0.16891332
44	0x3ea2f451	0.31827024
45	0xbe748fba	-0.23882952
46	0xbe8d3396	-0.2757842
47	0x3db9c1ef	0.09070193
48	0x3e8a426a	0.27003795
49	0x3f59b4da	0.8504158
50	0xbd4554d6	-0.04817661
51	0xbd9b2e0c	-0.07577142
52	0x3cde078e	0.027103212
53	0xbdbbc92a	-0.091692284
54	0xbdd700ae	-0.104981765
55	0xbd431544	-0.047627702
56	0xbce04034	-0.027374364
57	0x3e77c8d2	0.241977
58	0x3df1f25d	0.11813805
59	0xbea85ba9	-0.3288243
60	0xbd5419d5	-0.051782448
61	0x3dd99c51	0.10625518
62	0x3ea7131f	0.32631776
63	0xbd91c658	-0.07117909
64	0xbecf7f53	-0.40526828
65	0xbe83d8f8	-0.25751472
66	0x3e0c0bb4	0.1367634
67	0x3ea36ed3	0.3192049
68	0x3e455335	0.19270022
69	0xbe921e9c	-0.28538978
70	0xbe69d532	-0.22835234
71	0xbe5bd173	-0.21466617
72	0x3e0f0593	0.1396697
73	0x3edfb446	0.43692225
74	0xbd2563c5	-0.04037835
75	0x3eacaba9	0.33724716
76	0x3f168cfc	0.58808875
77	0x3f4da4f5	0.8032983
78	0x3dd320e9	0.103090115
79	0xbd8fff23	-0.07031085
80	0xbe8da4ef	-0.27664897
81	0x3dd53463	0.104103826
82	0x3f0c27df	0.5474834
83	0x3f050475	0.51959926
84	0x3f0befee	0.5466298
85	0xbf257eaa	-0.646464
86	0xbe9d4936	-0.30719918
87	0x3e566b12	0.20939282
88	0x3f66893c	0.90053153
89	0x3ed35e77	0.41283008
90	0xbeccc7ed	-0.3999628
91	0xbde0fad8	-0.10985345
92	0x3d978a00	0.07399368
93	0x3f144187	0.57912487
94	0x3e6c2c79	0.2306384
95	0xbe786637	-0.24257742
96	0xbc24bd35	-0.010054876
97	0x3eaa67e1	0.33282378
98	0x3f06203d	0.5239294
99	0x3b9a3554	0.0047060642
100	0xbd93fd80	-0.07226086
101	0xbecbefb6	-0.39831322
102	0xbef81293	-0.4845167
103	0xbdcfa3d1	-0.101386674
104	0x3a0ce0d0	0.0005374076
105	0xbe8c6efd	-0.27428427
106	0xbe99761c	-0.29972923
107	0xbe58747a	-0.21138182
108	0x3d9f5ca4	0.07781342
109	0x3c957cd5	0.018248001
110	0xbe011cb6	-0.12608609
111	0x3e08d815	0.13363679
112	0x3eb4928c	0.35268056
113	0x3f096317	0.53666824
114	0x3cc4b7d1	0.024013432
115	0x3f11f047	0.5700726
116	0x3f0fbd81	0.56148535
117	0x3f0a17a2	0.5394231
118	0x3e6349f1	0.22196175
119	0x3d006c87	0.0313535
120	0x3eb4660a	0.352341
121	0x3e8ff58e	0.2811703
122	0x3cb082a5	0.021546671
123	0x3e32886d	0.17434855
124	0xbe7ae937	-0.24503027
125	0x3f01499c	0.50502944
126	0x3f672a08	0.9029851
127	0x3f543099	0.82886654
128	0x3f46eef0	0.7770834
129	0x3ea5a739	0.32354143
130	0x3f1c0d2e	0.6095761
131	0x3f2980a6	0.66211927
132	0x3f0c76a9	0.5486856
133	0x3ee90f59	0.45519522
134	0x3f14f0a3	0.5817968
135	0xbef143d5	-0.47122064
136	0xbf112e55	-0.5671132
137	0xbeb4d0c9	-0.3531554
138	0xbe635bdc	-0.2220301
139	0x3e22b4e7	0.15889321
140	0xbf310a65	-0.69156486
141	0xbf5dc1f9	-0.86624104
142	0xbf52f2cb	-0.8240172
143	0xbf2f64d8	-0.6851325
144	0xbe950b86	-0.29110354
145	0xbdd3abc1	-0.10335494
146	0xbe62a2ec	-0.22132462
147	0xbd51cfc0	-0.051223516
148	0xbe37585f	-0.17904805
149	0xbe0156d6	-0.12630782

conv1.bias f4 [6]
0	0x3d84cc14	0.06484237
1	0x3ee4ca0a	0.44685394
2	0xb93ffd66	-0.00018309578
3	0xbea964aa	-0.33084613
4	0xbcd92575	-0.026507119
5	0x3e0428c5	0.12906177

conv2.weight f4 [16, 6, 5, 5]
0	0xbd113498	-0.035450548
1	0xbcd6079f	-0.02612668
2	0xbc8dcf1b	-0.01731067
3	0xbd8c37b0	-0.06846559
4	0x3b807f72	0.0039214427
5	0xbd797446	-0.060901903
6	0xbd989607	-0.074504904
7	0xbd500f2f	-0.05079573
8	0x3d1bf6f9	0.03807733
9	0xbd798e99	-0.060927007
10	0x3da6aaa8	0.08138019
11	0xbc6e16e4	-0.014531825
12	0xbc95f8bc	-0.018307082
13	0x3c75870a	0.014985809
14	0xbd9b0d2c	-0.07570872
15	0x3d6fc70a	0.058539428
16	0x3db420b4	0.087953
17	0xbd8442c7	-0.06458049
18	0x3bf84508	0.0075765885
19	0xbd59e984	-0.053201213
20	0xbc111647	-0.008855409
21	0xbd2d220d	-0.0422688
22	0x3c1d098a	0.009584794
23	0xbd3b5fc7	-0.045745637
24	0xbd9af2a4	-0.07565811
25	0xbdaaaa88	-0.083333075
26	0xbd2df7e3	-0.04247273
27	0x3d327044	0.043564096
28	0x3e03f845	0.12887676
29	0xbc3813a5	-0.011235152
30	0x3cf06dd1	0.02934924
31	0xbd07752d	-0.033070732
32	0xbcda06fb	-0.026614657
33	0x3d9f8073	0.077881716
34	0xbdb31e8f	-0.08746063
35	0x3d5aed0b	0.053448718
36	0x3d908871	0.07057274
37	0xbd6f23da	-0.0583838
38	0x3c84f37e	0.016229387
39	0xbd30266a	-0.043005385
40	0x3cd105c1	0.025515439
41	0xbaadc35d	-0.0013257075
42	0xbd8d95a8	-0.0691331
43	0xbda2f5da	-0.07957049
44	0xbd4afa72	-0.04955525
45	0xbdaa6f18	-0.08321971
46	0xbd5c2dde	-0.05375468
47	0xbd8cf484	-0.06882575
48	0x3d74b4b6	0.059742652
49	0x3d0d014e	0.034425072
50	0x3b4d3f17	0.0031318122
51	0x3d8a03f3	0.067390345
52	0xbd321d9f	-0.04348528
53	0xbd03bc40	-0.03216195
54	0x3ca252ab	0.01981481
55	0x3cb73caf	0.022367803
56	0x3d412182	0.047151096
57	0x3d5ce2ba	0.05392716
58	0xbdf0cf83	-0.1175833
59	0xbb81c625	-0.0039603882
60	0xbd9cce13	-0.07656493
61	0xbda3c989	-0.07997424
62	0xbdaf303b	-0.08554121
63	0x3d8702d8	0.06592339
64	0x3d794554	0.060857132
65	0xbd8d0218	-0.06885165
66	0xbd02d333	-0.031939697
67	0xbd6222a1	-0.055208806
68	0xbd82f0e7	-0.06393605
69	0xbd2f1095	-0.042740423
70	0x3d9886dc	0.074475974
71	0xbcb362ae	-0.02189764
72	0x3d829ea0	0.063779116
73	0x3d7f990a	0.06240181
74	0x3dd5f699	0.104474254
75	0xbcba6a74	-0.022755839
76	0xbd667fbf	-0.056274172
77	0xbe31b13e	-0.17352769
78	0x3dd49b7b	0.10381218
79	0x3e661b2d	0.22471304
80	0x3e3e0d13	0.18559675
81	0xbd1ef250	-0.038805306
82	0xbe4737b2	-0.1945484
83	0xbd02d34b	-0.031939786
84	0x3e59c71c	0.2126736
85	0x3e18cd76	0.14922127
86	0x3d897b84	0.06713012
87	0xbdc65ae2	-0.09685303
88	0xbc95d9e8	-0.018292382
89	0x3db24a54	0.08705583
90	0xbe062711	-0.1310084
91	0xbe03422a	-0.12818208
92	0xbe36c3a0	-0.17848063
93	0xbd65aabc	-0.056071028
94	0xbcc75bac	-0.024335705
95	0xbe1e9c25	-0.15489252
96	0xbd768eeb	-0.06019489
97	0xbe55beee	-0.20873615
98	0xbdc192cf	-0.0945183
99	0x3b1e16e1	0.0024122524
100	0x3ce07b81	0.027402641
101	0x3e0771a4	0.13226944
102	0xbd3895f3	-0.045064878
103	0xbdcaa0bb	-0.09893938
104	0x3d6e6837	0.058204856
105	0x3db73eb7	0.08947509
106	0x3a2b8373	0.000654272
107	0xbdc80922	-0.09767367
108	0xbd0fbeab	-0.035093945
109	0x3cb46786	0.02202202
110	0xbdc15e70	-0.09441841
111	0xbdf92013	-0.12164321
112	0xbdd10a9c	-0.10207102
113	0x3be7e488	0.0070768036
114	0xbdc0d9c9	-0.09416539
115	0x3cd11c32	0.02552614
116	0xbe0c1b3c	-0.13682264
117	0xbdf810de	-0.12112592
118	0xbe0456cf	-0.1292374
119	0xbda7e60f	-0.08198177
120	0xbd3c1c08	-0.04592517
121	0xbc41f824	-0.0118389465
122	0xbd60eacc	-0.05491142
123	0xbd6d7f0b	-0.057982486
124	0xbdea3659	-0.11436147
125	0xbd6225e6	-0.055211924
126	0xbd799cad	-0.060940433
127	0x3d644588	0.055730373
128	0x3d5f3cb8	0.054501265
129	0xbe00501a	-0.12530556
130	0x3e65beba	0.22436038
131	0x3de5d1bb	0.112216435
132	0xbd32d9d6	-0.043664776
133	0xbdbe5e07	-0.09295278
134	0xbd313fed	-0.043273855
135	0x3e23155b	0.15926115
136	0x3e540e31	0.20708539
137	0x3e0b4f47	0.1360446
138	0x3d8b9de6	0.06817226
139	0xbc29a9d7	-0.010355434
140	0xbdae1876	-0.08500759
141	0xbd8f617a	-0.07001014
142	0xbd646658	-0.055761665
143	0x3d316c05	0.043315906
144	0xbcb3768e	-0.021907117
145	0x3cb605a7	0.022219492
146	0xbc8414f6	-0.016123276
147	0xbd473158	-0.048631042
148	0x3da7e1b4	0.08197346
149	0xbd198baa	-0.03748671
150	0xbdd9d1cb	-0.10635718
151	0xbdb2066f	-0.08692633
152	0xbcbe92ba	-0.023263324
153	0xbd5a6b8b	-0.053325217
154	0xbdab7ca4	-0.08373383
155	0xbd54cf0c	-0.051955268
156	0xbc9da9a4	-0.01924593
157	0xbdf5f3f8	-0.12009424
158	0xbdcaa680	-0.098950386
159	0xbd68a897	-0.056801405
160	0x3d560a30	0.05225581
161	0xbcd89eb9	-0.026442872
162	0xbd983500	-0.07431984
163	0x3cafcfc5	0.021461377
164	0x3d852b14	0.06502357
165	0xbd9250d8	-0.07144326
166	0xbe3055d5	-0.17220242
167	0xbe2510a1	-0.16119625
168	0xbd86f87a	-0.06590362
169	0x3dc36bcd	0.09542046
170	0xbd224de2	-0.039625056
171	0xbcdba936	-0.026814085
172	0xbdceab5a	-0.100912765
173	0xbd9a232c	-0.0752624
174	0x3ddb3c15	0.10704819
175	0x3de159a2	0.11003424
176	0x3c817dc2	0.015807036
177	0xbcc9edce	-0.024649527
178	0xbd0501df	-0.032472488
179	0x3d96dc7e	0.07366274
180	0xbe1f9680	-0.15584755
181	0xbb8b7961	-0.004256413
182	0x3d0dfcc8	0.0346649
183	0xbd8c164d	-0.06840191
184	0x3dae141a	0.08499928
185	0xbdb39e36	-0.08770411
186	0xbbca83d0	-0.006180264
187	0xbe09c8cf	-0.13455509
188	0x3d7332c7	0.059374597
189	0x3e0c25a3	0.13686232
190	0x3d5fbfc2	0.054626234
191	0x3dc24510	0.09485829
192	0xbdeae171	-0.11468781
193	0x3cd768ce	0.026295092
194	0xbd05b2aa	-0.03264109
195	0x3cd1a21b	0.025589993
196	0x3d6f48d9	0.058419082
197	0xb99af26f	-0.00029553796
198	0xbdf54fb3	-0.11978092
199	0xbe439b48	-0.19102204
200	0xbd41e048	-0.047333032
201	0xbd153faf	-0.036437687
202	0x3ca41b1b	0.020032456
203	0x3d323bd8	0.043514103
204	0xbc51116b	-0.0127605
205	0xbd946fac	-0.07247862
206	0xbbe0d3a1	-0.0068611656
207	0x3d8f0342	0.06983043
208	0x3bd287cf	0.006424881
209	0xbd09e158	-0.03366217
210	0xbdc80f6c	-0.097685665
211	0x3bc60d01	0.0060440307
212	0xbd35fc45	-0.044430036
213	0x3d0dcb06	0.034617446
214	0x3d861742	0.06547405
215	0xbe13f651	-0.14449431
216	0xbd4d7fca	-0.050170697
217	0x3d8e4e1d	0.06948493
218	0xbd12ece2	-0.03587044
219	0x3d3ce0e7	0.04611292
220	0xbd1fe87d	-0.039040077
221	0xbd728bfe	-0.05921554
222	0x3d7801e5	0.06054868
223	0x3d2f1cb0	0.042751968
224	0x3dff334e	0.124609575
225	0xbe17dbdc	-0.14829963
226	0xbca0fe73	-0.01965258
227	0x3e02ade7	0.12761651
228	0xbcb6247c	-0.022234194
229	0xbdec0b42	-0.11525585
230	0xbd9dbe9d	-0.07702372
231	0xbca3e75a	-0.020007778
232	0x3f042b5c	0.5162866
233	0x3e222c3f	0.15837191
234	0xbe1fb1bb	-0.15595143
235	0xbd8e7377	-0.06955617
236	0x3f046cc0	0.5172844
237	0x3ee0450f	0.43802688
238	0xbeef321c	-0.46717918
239	0xbe05aef5	-0.13055022
240	0x3df83d9d	0.12121127
241	0x3eaf9d41	0.34299663
242	0xbda6c138	-0.08142322
243	0xbeb1ac49	-0.34701756
244	0xbe1bef91	-0.15228106
245	0x3d8d3d5d	0.0689647
246	0xbd37e95e	-0.04490029
247	0xbdafc877	-0.085831575
248	0xbe50bc7d	-0.20384403
249	0xbe95f80e	-0.29290813
250	0xbdf697e3	-0.12040689
251	0xbcd86c91	-0.026418956
252	0xbcc0e72d	-0.023547733
253	0xbcac1f83	-0.02101112
254	0x3dd77b1d	0.10521529
255	0xbdb4b573	-0.08823671

conv2.bias f4 [16]
0	0x3d972677	0.073803835
1	0xbc0782f6	-0.00827097
2	0x38652f46	5.464188e-05
3	0x3dad3ab7	0.084584646
4	0xbb2fd961	-0.0026832449
5	0xbd73d397	-0.05952796
6	0x3cc242e4	0.023713537
7	0xbcf5dfdd	-0.030013973
8	0xbccccd6a	-0.025000293
9	0xbda29cdf	-0.07940077
10	0xbc018c05	-0.007906918
11	0x3d47b5bc	0.0487573
12	0xbdd36cc6	-0.10323481
13	0x3c421899	0.011846685
14	0xbe1b76e4	-0.15182072
15	0x3d3edbb3	0.04659624

fc1.weight f4 [120, 256]
0	0xbd207921	-0.039178018
1	0xbd524b72	-0.05134148
2	0x3c4f9c7a	0.012671584
3	0xbdb38f93	-0.08767619
4	0xbcc42705	-0.023944387
5	0x3c8f2145	0.017471919
6	0x3c1ef7dc	0.009702649
7	0x3d8b248b	0.067940794
8	0xbc406074	-0.011741746
9	0xbcc06f72	-0.023490641
10	0xbdb079ec	-0.08617005
11	0x3c871aff	0.016492365
12	0x3d1ee6b8	0.03879425
13	0x3cded9d5	0.02720348
14	0xbcc70927	-0.024296356
15	0xbd86066d	-0.06544194
16	0x3c517397	0.012783906
17	0x3b20e70b	0.0024551775
18	0xbde95fcc	-0.11395225
19	0xbc125c1d	-0.008933094
20	0x3ceb6735	0.028735736
21	0x3c9a7ef2	0.01885936
22	0xbcb2a3d0	-0.021806628
23	0x37b1bda8	2.118836e-05
24	0x3cdba9d0	0.026814371
25	0xbb85e1a4	-0.0040857363
26	0x3df92db3	0.121669196
27	0x3d8b1f8e	0.06793128
28	0x3dbd76e3	0.092511915
29	0xb889afa6	-6.565386e-05
30	0xbdd0115b	-0.1015956
31	0x3c5285c6	0.012849277
32	0x3d5ce2ca	0.05392722
33	0x3d646a1f	0.055765267
34	0xbcaf35aa	-0.021387894
35	0x3ce38549	0.027773516
36	0x3b8f403a	0.00437167
37	0x3c5bd4b2	0.01341741
38	0x3d616e01	0.05503655
39	0x3d6ae8d3	0.057350945
40	0x3ce4fc33	0.02795229
41	0xbd91f90a	-0.071275786
42	0x3db07b4b	0.08617266
43	0x3b9419b7	0.004519667
44	0x3de2ff9d	0.110839106
45	0xbcdfbcd8	-0.027311727
46	0xbd9eb948	-0.07750183
47	0xbd56d090	-0.052444994
48	0x3d106ed0	0.03526193
49	0xbd45cf70	-0.04829353
50	0x3bbab2e6	0.005697596
51	0xbdb75ae7	-0.08952885
52	0x3cce58b2	0.025188778
53	0xbd437468	-0.047718436
54	0xbd5b5c31	-0.053554717
55	0xbdab35b8	-0.083598554
56	0xbb04a2f9	-0.002023874
57	0x3cdcb970	0.026943892
58	0x3d87ebbd	0.066367604
59	0x3d9a6e48	0.07540566
60	0x3c8bc2f6	0.017060738
61	0x3dbbb84c	0.09166011
62	0x3d72ff7c	0.05932568
63	0x3d3f5367	0.046710398
64	0xbd35e07e	-0.044403546
65	0xbbd41353	-0.00647203
66	0x3df54c23	0.119774126
67	0xbd4745d7	-0.04865059
68	0xbe0d1937	-0.1377915
69	0xbcafbe87	-0.021453155
70	0xbdab392b	-0.08360513
71	0xbccc0375	-0.024903992
72	0xbe66540d	-0.22493
73	0xbde11bb3	-0.10991611
74	0xbd625a7d	-0.055262078
75	0x3d05073e	0.03247761
76	0xbd392f1a	-0.045210935
77	0xbd5edd68	-0.05441037
78	0x3ad7ed1c	0.0016473862
79	0x3e0c000f	0.13671897
80	0x3d18bbad	0.037288357
81	0x3c40c2e8	0.011765219
82	0xbc0d741e	-0.0086336415
83	0x3d5f7ba0	0.054561257
84	0x3de8f3c2	0.11374618
85	0x3d74c0bb	0.059754115
86	0xbdbe1c48	-0.09282738
87	0xbd62830a	-0.05530075
88	0xbe3d3464	-0.18477017
89	0xbd5b69c8	-0.053567678
90	0xbde1349d	-0.10996363
91	0x3b884d49	0.0041596037
92	0x3d017f79	0.031615708
93	0xbc7476eb	-0.01492093
94	0x3b371eb8	0.0027941894
95	0x3d8713a3	0.06595542
96	0x3e140384	0.14454466
97	0x3e1c8b6e	0.15287563
98	0x3d6cce4b	0.057813924
99	0xbe266d49	-0.16252626
100	0x3df0783a	0.117416814
101	0x3d52c9d6	0.051462017
102	0xbda7ba9a	-0.08189888
103	0xbcda420a	-0.026642818
104	0x3d02e5b4	0.031957343
105	0x3d029965	0.03188457
106	0xbc512435	-0.01276498
107	0x3c0ebccb	0.008712004
108	0xbcb58d2d	-0.022162044
109	0xbd9e332b	-0.07724603
110	0x3bf82d35	0.0075737485
111	0x3b7683d4	0.0037615197
112	0x3caf1cb2	0.021375988
113	0x3cdadb80	0.026715994
114	0xbda999ea	-0.0828131
115	0xbd448dc4	-0.04798676
116	0x3d791fc4	0.06082131
117	0xbc769cf2	-0.015052067
118	0xbda75c94	-0.08171955
119	0xbcaddd0d	-0.02122357
120	0x3d11e80e	0.035621695
121	0xba49ed07	-0.00077028613
122	0xbd51807f	-0.051147934
123	0xbd657a13	-0.056024622
124	0xbd3fd2ec	-0.04683201
125	0xbc9b1656	-0.018931549
126	0xbc2ba4e2	-0.010476323
127	0xbcf45a10	-0.029828101
128	0xbcb3faf5	-0.021970252
129	0xbc900fec	-0.017585717
130	0x3db44010	0.088012815
131	0x3db964de	0.09052442
132	0xbe229d35	-0.15880282
133	0x3b617d84	0.0034407089
134	0x3d7db2ea	0.061938204
135	0x3de56c12	0.112022534
136	0xbe9e5b34	-0.30928957
137	0xbdfabbdf	-0.12242865
138	0xbe5d93a1	-0.21638347
139	0xbd04d955	-0.032433826
140	0xbe05414a	-0.13013187
141	0xbde97575	-0.11399356
142	0xbe13d18c	-0.14435405
143	0xbcacbf6c	-0.02108737
144	0xbd115f7f	-0.035491463
145	0x3cdb55cc	0.02677431
146	0xbcac15f5	-0.021006564
147	0xbd863902	-0.06553842
148	0x3e097a9e	0.13425681
149	0x3cf91e78	0.030410036
150	0xbe3bad9e	-0.18327948
151	0xbe8a2b54	-0.26986182
152	0x3db2b67b	0.08726212
153	0xbc8b13aa	-0.01697715
154	0x3d452320	0.0481292
155	0xbd1fe31d	-0.03903495
156	0x3ce78d8c	0.028265737
157	0x3db0466e	0.086071834
158	0x3d9c9a83	0.07646658
159	0x3dd84988	0.105609
160	0xbd1431a2	-0.036180146
161	0x3c240c44	0.01001269
162	0x3d9b2d04	0.075769454
163	0xbd0bf606	-0.034170173
164	0x3d796c10	0.060894072
165	0xbd7add9f	-0.06124651
166	0xbd3b7c6a	-0.045772947
167	0x3da21198	0.07913512
168	0xbd6d7955	-0.05797704
169	0xbe147e45	-0.14501293
170	0xbe3107c3	-0.17288117
171	0xbd1a6e57	-0.037702885
172	0x3dd7c4dd	0.105355956
173	0xbca6afa6	-0.020347428
174	0x3d3beda1	0.045880917
175	0x3d44b1cb	0.04802112
176	0x3c2c17a4	0.010503683
177	0x3dc5670f	0.096387975
178	0xbd58e041	-0.05294824
179	0xbc636bc3	-0.013880673
180	0x3b5c9b15	0.0033661772
181	0xbe0114b8	-0.1260556
182	0x3dbc11d6	0.091830894
183	0x3d816d1d	0.0631964
184	0x3db5d5a6	0.08878641
185	0xbcaaa862	-0.020832244
186	0x3d61c504	0.05511953
187	0x3e20066b	0.15627448
188	0x3ccb833c	0.02484285
189	0xbd875aec	-0.06609139
190	0xbcee4ee2	-0.029090349
191	0x3cf2c11f	0.029633103
192	0x3dca185f	0.0986793
193	0x3e20c78a	0.15701118
194	0x3c7fdbc1	0.015616358
195	0xbcb1809d	-0.021667773
196	0x3dc7d62a	0.097576454
197	0xbbe071c7	-0.006849501
198	0x3d1ba15d	0.037995685
199	0xbd760765	-0.060065646
200	0x3db0d142	0.08633663
201	0xbd96a8f1	-0.07356442
202	0x3daba6ef	0.083814494
203	0x3dbb5cdb	0.0914857
204	0x3dd6923a	0.10477109
205	0x3dcfe51f	0.10151123
206	0x3e46cab7	0.19413267
207	0x3e6ac39b	0.2292618
208	0x3c11e884	0.008905534
209	0x3c44bb01	0.012007476
210	0x3c524d87	0.012835867
211	0xbd8c9578	-0.068644464
212	0x3d22e836	0.039772235
213	0xbcf3c409	-0.029756563
214	0xbd30360d	-0.043020297
215	0x3c1f4466	0.009720897
216	0xbd7ecd3f	-0.062207457
217	0x3d45918b	0.048234504
218	0xbb910ae6	-0.004426348
219	0xbd261e44	-0.040556207
220	0xbd8ad100	-0.06778145
221	0x3c001435	0.007817318
222	0x3d68f823	0.056877267
223	0xbcc2561c	-0.0237227
224	0xbd3969ad	-0.045266796
225	0xbde348bb	-0.110978566
226	0xbcfa0c08	-0.030523315
227	0x3c65ba61	0.014021487
228	0xbb223ec2	-0.0024756645
229	0xbd96d0b8	-0.07364029
230	0xbd8fae7c	-0.07015702
231	0xbd8bb6be	-0.06821965
232	0x3d2ea689	0.04263929
233	0x3d9bc09d	0.076050974
234	0xbcbbe318	-0.022935435
235	0x3dacb478	0.08432859
236	0xbd7e829d	-0.06213628
237	0x3d038865	0.032112498
238	0x3d001f72	0.03127999
239	0x3e18e5cf	0.14931415
240	0xbcb819af	-0.022473184
241	0x3ae2b5cc	0.0017296611
242	0xbb988c67	-0.004655409
243	0xbd48a956	-0.048989616
244	0xbcb27266	-0.021783065
245	0xbd0453bf	-0.03230643
246	0x3d59506e	0.05305522
247	0xbd6b87a1	-0.057502393
248	0x3d477bd0	0.04870206
249	0x3c24b608	0.010053165
250	0x3d39e7f5	0.045387227
251	0xbc08a61b	-0.008340384
252	0xbd2a6b91	-0.04160649
253	0x3d2dd963	0.042443644
254	0x3d22b5f3	0.0397243
255	0xbcd90881	-0.026493313

fc1.bias f4 [120]
0	0xbc25322b	-0.010082762
1	0x3c05668f	0.008142128
2	0x3d81ea15	0.06343476
3	0x3d8f6b7d	0.07002924
4	0xbd21e024	-0.039520398
5	0x3d2facda	0.042889453
6	0xbbf9f742	-0.0076283524
7	0x3b4c0268	0.0031129364
8	0x3cbb4e6b	0.022864541
9	0x3d928b7a	0.07155509
10	0xbd8ffc7e	-0.07030581
11	0x3c8ae604	0.016955383
12	0xbc239c27	-0.00998596
13	0x3babb8b2	0.0052405233
14	0xbc5aba2f	-0.013350054
15	0x3da21fbd	0.0791621
16	0xbc0a7e5a	-0.008452976
17	0xbc9f90db	-0.019478252
18	0x3d194cb8	0.03742668
19	0xbc2da9fd	-0.01059961
20	0x3d37a286	0.04483273
21	0x3db323cb	0.08747061
22	0xbd0aedbc	-0.033918127
23	0x3cae28b1	0.021259638
24	0x3d81cde1	0.063380964
25	0xbd5ca5a9	-0.053868923
26	0xbda07ed5	-0.07836691
27	0xbc70da45	-0.014700477
28	0x3d0b3d7c	0.033994183
29	0x3d58ac9e	0.052898996
30	0x3c0c5719	0.008565688
31	0xbb157d5c	-0.0022810316
32	0xbd65b78f	-0.05608326
33	0xbcc27bc6	-0.02374066
34	0xbd84d69a	-0.064862445
35	0x3c2514bc	0.010075744
36	0xbc4f88b8	-0.012666874
37	0x3d2b6adb	0.041849952
38	0x3d17a2b4	0.0370204
39	0xbcea07ab	-0.02856811
40	0xbc8cb351	-0.017175348
41	0x3b47e9c9	0.0030504337
42	0x3d887de9	0.066646405
43	0x3d6a4026	0.057190083
44	0x3c850642	0.016238336
45	0xbd271c7d	-0.040798653
46	0x3ca37869	0.019954877
47	0xbbaece2c	-0.005334636
48	0xbd1826ce	-0.037146382
49	0xbcb5cb0d	-0.022191549
50	0x3d0839fc	0.033258423
51	0xbce07f7e	-0.027404543
52	0x3d89b10e	0.067232236
53	0xbc8e7faa	-0.01739486
54	0xbbcd5e88	-0.0062673725
55	0xbd7c7b15	-0.061640818
56	0xbba0b484	-0.0049043316
57	0xbca9f450	-0.02074638
58	0x3af22c7e	0.0018476394
59	0xbbf96987	-0.007611457
60	0xbcd629e5	-0.026143024
61	0x3d1b2f3d	0.037886847
62	0xbc476dab	-0.012172143
63	0x3c5dfc17	0.013548872
64	0xba7b08ec	-0.00095762196
65	0x3d56d6f6	0.052451096
66	0xbc541a3a	-0.012945706
67	0xbcf22bde	-0.029561933
68	0xbd4ced6c	-0.05003111
69	0xbbce7d85	-0.006301584
70	0xbce302fb	-0.027711382
71	0x3c9467ec	0.01811596
72	0x3cdaa282	0.026688818
73	0x3a8532c1	0.001016222
74	0xbd18c89c	-0.03730069
75	0xbc6a3938	-0.014295869
76	0x3d701b49	0.05861977
77	0x3cfca70b	0.030841371
78	0x3d73b166	0.059495352
79	0x3c1f172f	0.009710117
80	0xbd217492	-0.03941781
81	0x3aac87bf	0.0013163014
82	0xbbe5a748	-0.007008467
83	0x3d4eab27	0.050456192
84	0x3d7e3c65	0.062069315
85	0x3d423b05	0.047419567
86	0xbd008426	-0.031376027
87	0xbce66371	-0.02812359
88	0xbd0d46c3	-0.03449131
89	0x3c7be8d2	0.015375333
90	0x3cc0c32b	0.023530563
91	0xbd355dd4	-0.044278935
92	0xba099879	-0.00052488555
93	0x3ce59dba	0.028029311
94	0x3d6e59ae	0.058190994
95	0x3c923210	0.017846137
96	0xbcad4069	-0.021148877
97	0x3d1e65a8	0.038671166
98	0xbd33f17d	-0.043931473
99	0x3d1b7ccf	0.037960824
100	0xbd8dc2f2	-0.069219485
101	0x3d18a797	0.0372692
102	0x3b8e1267	0.00433569
103	0x3c4f597b	0.012655611
104	0x3cc85e15	0.024458924
105	0xbd45d285	-0.04829647
106	0x3d24d1c0	0.040239096
107	0x3c8cc228	0.017182425
108	0x3cf61470	0.030039042
109	0xbd145616	-0.03621491
110	0x3cd34fdb	0.025794914
111	0xbd754c32	-0.05988712
112	0x3c738b0d	0.014864695
113	0xbd1c9f45	-0.03823783
114	0xbd8e9f63	-0.06963994
115	0x3de9ab69	0.11409647
116	0x3d619762	0.05507601
117	0xbcbf6fb9	-0.023368703
118	0xbb0f6d93	-0.002188538
119	0x3d45fadd	0.048334945

fc2.weight f4 [84, 120]
0	0xbdd7c02c	-0.10534701
1	0x3bc8dc23	0.006129758
2	0xbde3d4fb	-0.11124607
3	0x3dc2f2f7	0.09518998
4	0xbcc76bb2	-0.024343345
5	0xbd1322c2	-0.03592182
6	0xbd79e6d3	-0.061011147
7	0xbd737857	-0.059440937
8	0x3d28755c	0.041127548
9	0xbc2563e0	-0.010094613
10	0x3d66eb23	0.056376588
11	0x3e06d8e0	0.13168669
12	0xbd4a8dc7	-0.049451616
13	0xbd2e7801	-0.042594913
14	0x3cb60c1a	0.022222567
15	0x3d951d15	0.072809376
16	0x3db39716	0.08769052
17	0x3dc99b6d	0.09844098
18	0x3d90d857	0.070725136
19	0xbd86fdaf	-0.06591355
20	0x3cbe199f	0.023205576
21	0x3d3e55e3	0.046468627
22	0x3d88bae4	0.066762716
23	0xbbf65214	-0.0075171087
24	0x3d60c6f6	0.054877244
25	0x3acdc1bb	0.0015697995
26	0x3d8731ef	0.06601321
27	0x3d44f538	0.04808542
28	0xbc3e26fc	-0.011605974
29	0x3d4ddd04	0.050259605
30	0xbd27e307	-0.040987995
31	0xbd37bf89	-0.044860397
32	0x3da2fcc9	0.07958371
33	0xbbd46ee1	-0.0064829444
34	0xbd405197	-0.04695281
35	0xbd7649f4	-0.06012912
36	0x3d7cfaa6	0.061762474
37	0xbc883e40	-0.016631246
38	0xbd12708b	-0.03575186
39	0xbd9bab3b	-0.07601019
40	0xbc014bac	-0.007891577
41	0x3d06fda2	0.032956727
42	0xbc4983a2	-0.01229945
43	0xbd13efd1	-0.03611738
44	0xbd3c0f6b	-0.04591314
45	0xbd69b352	-0.05705578
46	0xbcdbaf08	-0.02681686
47	0xbd266684	-0.04062511
48	0x3d127ef4	0.035765603
49	0x3d01cc2d	0.031688858
50	0x3df19279	0.117955156
51	0xbd0ed747	-0.034873273
52	0xbd9ee189	-0.07757861
53	0x3da183c6	0.07886462
54	0x3ca3cd88	0.019995466
55	0xbd37a5cd	-0.044835854
56	0x3d6f9193	0.05848844
57	0x3dc5e77c	0.09663293
58	0xbc8ced01	-0.017202856
59	0xbdacd532	-0.08439101
60	0x3da84d8c	0.08217916
61	0x3e18f319	0.14936484
62	0x3d090788	0.033454448
63	0x3d273517	0.040822115
64	0x3dd26861	0.10273815
65	0xbc12b612	-0.008954542
66	0x3dcdbe39	0.10046048
67	0xbe08ae68	-0.1334778
68	0x3c9976f0	0.018733472
69	0x3deb1fd2	0.114806786
70	0xbdb60efb	-0.08889576
71	0xbced77f4	-0.028987862
72	0xbcfad8c4	-0.03062094
73	0x3dbda0a7	0.09259158
74	0x3ca14628	0.019686773
75	0x3d744c5b	0.05964313
76	0x3d278a9d	0.040903676
77	0x3bfe8a51	0.0077679534
78	0x3dab7ca7	0.08373385
79	0xbd240196	-0.040040575
80	0x3c08c4e7	0.008347726
81	0x3dcdb23d	0.10043762
82	0xbd4cd561	-0.05000818
83	0x3dbd0163	0.0922878
84	0x3d2792dd	0.040911544
85	0x3cc004b1	0.023439737
86	0x3e20e8da	0.15713826
87	0x3d15c39c	0.0365635
88	0xbdf3f3b9	-0.11911721
89	0xbdb602d2	-0.08887257
90	0xbaf6db65	-0.0018833695
91	0x3cb01e56	0.02149884
92	0x3d8e2271	0.06940163
93	0x3d268be7	0.040660765
94	0xbdae714f	-0.08517706
95	0x3d4f4b1a	0.05060873
96	0x3cf30c2f	0.029668896
97	0x3d3a540b	0.045490306
98	0xbd317111	-0.04332072
99	0x3dd8c200	0.105838776
100	0xbda81a2e	-0.082081184
101	0xbd5b2bf4	-0.053508714
102	0xbdbd1854	-0.09233156
103	0xbd6e71aa	-0.058213867
104	0x3dcfd04e	0.10147153
105	0xbdbb2cda	-0.09139414
106	0xbddcef6e	-0.10787855
107	0x3d7bbe1f	0.06146061
108	0x3d6d89e2	0.057992823
109	0x3d438ad1	0.047739808
110	0x3d7059e2	0.05867947
111	0xbd66071c	-0.056159124
112	0xbd8b2023	-0.06793239
113	0x3b75e04e	0.003751773
114	0x3db36b6c	0.087607235
115	0xbc0c0774	-0.008546699
116	0x3e00a506	0.12562951
117	0xbdea8d31	-0.114527114
118	0x3de377b9	0.1110682
119	0x3df04b7a	0.11733146
120	0x3c0542c7	0.008133597
121	0x3d40e987	0.04709771
122	0xbd2600a5	-0.04052796
123	0x3daf8aa0	0.085713625
124	0xbd7b1b94	-0.061305597
125	0xbcfb2e32	-0.030661676
126	0xbdb27932	-0.087145224
127	0xbd8f68d5	-0.07002417
128	0xbc895089	-0.016762035
129	0xbd0756b9	-0.03304169
130	0xbc823851	-0.015895994
131	0xbbec4235	-0.007210041
132	0xbd85a652	-0.06525864
133	0xbcf49a77	-0.02985881
134	0xbc84eb98	-0.016225621
135	0xbdd3bcd5	-0.10338751
136	0xbdd6ed3a	-0.10494466
137	0x3cbfad4e	0.023398068
138	0x3de33b18	0.110952556
139	0xbc8ba544	-0.017046578
140	0x3d363068	0.044479758
141	0x3d81b066	0.063324735
142	0xbcb07339	-0.021539317
143	0x3d2c02f4	0.041995004
144	0xbe045535	-0.12923129
145	0x3c6488ec	0.01394866
146	0x3e0ca9f3	0.13736705
147	0xbd94251b	-0.0723364
148	0xbcb51a2e	-0.02210721
149	0xbcb9c539	-0.02267705
150	0x3cbab355	0.02279059
151	0xbdffbf18	-0.1248762
152	0x3e23b018	0.15985143
153	0x3da4c88f	0.08046066
154	0x3ceca419	0.028886842
155	0x3dd2a605	0.10285572
156	0xbcb926f2	-0.022601578
157	0x3c313ad2	0.0108172465
158	0xbcd12e35	-0.025534729
159	0xbc9b7306	-0.018975746
160	0xbc7c7d68	-0.015410759
161	0x3da0dcaf	0.07854592
162	0x3d21205c	0.0393375
163	0xbba647d7	-0.005074482
164	0xbd340046	-0.043945573
165	0x3d14788e	0.036247782
166	0xbdeb708b	-0.11496075
167	0x3ca5cfdc	0.020240717
168	0xbd90d93a	-0.07072683
169	0xbdba5de3	-0.09099939
170	0x3d8834dc	0.06650707
171	0xbd8c14bc	-0.06839892
172	0x3ca9482c	0.020664297
173	0x3d8b91c2	0.068149105
174	0x3da64ed1	0.08120502
175	0x3db99813	0.09062209
176	0x3c925b9b	0.017865947
177	0x3d3cfbe0	0.046138644
178	0x3dd305d5	0.10303847
179	0xbda1e234	-0.07904473
180	0xbc34adcc	-0.0110277645
181	0x3dd72874	0.10505763
182	0x3e0d4117	0.13794361
183	0x3d825203	0.06363299
184	0xbdaef944	-0.085436374
185	0x3d317bca	0.043330945
186	0x3dc6af0e	0.09701358
187	0xbda6b593	-0.08140101
188	0xbdf64b72	-0.12026109
189	0x3ce2792c	0.02764567
190	0xbc9da040	-0.019241452
191	0x3e160c72	0.14653185
192	0x3d87551f	0.066080324
193	0x3b382f93	0.0028104528
194	0xbccff32a	-0.025384504
195	0x3df03d34	0.117304236
196	0x3d783af9	0.060603116
197	0x3dab75b0	0.083720565
198	0x3d7dfac7	0.062006738
199	0x3d95ec8d	0.07320509
200	0xbd880b5c	-0.06642792
201	0xbd640ea7	-0.055678036
202	0x3ccae8ea	0.024769265
203	0xbd71e557	-0.059056606
204	0xbc759e63	-0.014991376
205	0x3d1e4e5f	0.03864896
206	0x3de09c9e	0.10967372
207	0x3d7d4b71	0.061839525
208	0xbd8507d9	-0.064956374
209	0xbdb05895	-0.08610646
210	0xbd180bc8	-0.03712061
211	0xbd890826	-0.06691007
212	0x3cd6240c	0.026140235
213	0xbda64b26	-0.08119802
214	0x3d584ea4	0.052809373
215	0xbd063231	-0.03276271
216	0xbdb7e0db	-0.08978435
217	0xbd6df567	-0.058095362
218	0x3d377394	0.04478796
219	0xbd5d160f	-0.053976115
220	0x3c6080ae	0.013702555
221	0xbd9ea6af	-0.07746636
222	0xbc2085dd	-0.0097975405
223	0x3dabc299	0.08386726
224	0xbd1081c6	-0.03528001
225	0x3dedb172	0.11606111
226	0x3dc82dc1	0.09774352
227	0xbd820849	-0.063492365
228	0xbdce79a1	-0.100817926
229	0xbdb23a5a	-0.08702536
230	0xbdbf495c	-0.09340164
231	0xba78e38d	-0.0009494357
232	0xbd89ee97	-0.067349605
233	0x3d9661c4	0.07342866
234	0x3ccecc81	0.025244
235	0x3db4a42e	0.08820377
236	0x3ca5e51a	0.020250846
237	0x3df29801	0.11845399
238	0x3cbf6ff1	0.023368808
239	0xbdadd058	-0.08487004
240	0xbd3348b8	-0.043770522
241	0xbbdbf184	-0.0067121405
242	0x3e4c416b	0.1994683
243	0xbdb88c60	-0.090111494
244	0x3d8193cb	0.063270174
245	0x3e2892e7	0.16462289
246	0xbca5ea35	-0.02025328
247	0xbdd1245e	-0.102120146
248	0x3d8c10ca	0.0683914
249	0x3c87a300	0.016557217
250	0x3d72768a	0.05919508
251	0x3db77eff	0.089597695
252	0xbd9a8c8c	-0.075463384
253	0xbd7cf2e9	-0.061755095
254	0x3c4d23fc	0.012520786
255	0x3d58c612	0.05292327

fc2.bias f4 [84]
0	0x3da370cf	0.07980501
1	0xbd403228	-0.046922833
2	0x3d515cb8	0.051113814
3	0xbcbdc250	-0.023163944
4	0x3d86dae5	0.065847196
5	0x3da71444	0.08158162
6	0x3db5dc3e	0.088798985
7	0x3dcb4a86	0.099263236
8	0x3d9b5dc8	0.07586247
9	0x3db88ca2	0.090111986
10	0x3e1bfca8	0.152331
11	0xbd51ac4f	-0.051189717
12	0xbd89291f	-0.06697296
13	0x3bc67a04	0.006057026
14	0x3e3b5f1f	0.18298005
15	0x3e095216	0.1341022
16	0x3d5da08c	0.054108188
17	0x3d66d7af	0.056358036
18	0x3d36c340	0.0446198
19	0xbd0fd85c	-0.035118446
20	0x3d4a9c4b	0.04946546
21	0x3b172f89	0.0023069105
22	0x3d7427fe	0.059608452
23	0xbdd859c1	-0.10563994
24	0xbd0dac43	-0.03458811
25	0xbdc19898	-0.09452933
26	0x3d1782b2	0.036989875
27	0x3d1cf928	0.03832355
28	0x3df54c69	0.11977465
29	0xbdd4724f	-0.10373365
30	0xbdc75dbb	-0.097346745
31	0xbd15d486	-0.03657963
32	0xbdaeee3b	-0.085415326
33	0x3dbf0dff	0.093288414
34	0x3de3f2bb	0.111302815
35	0xbe161307	-0.14655696
36	0x3c46868e	0.012117041
37	0xbcb3d3d7	-0.021951599
38	0xbcf5d992	-0.030010972
39	0xbd6a8535	-0.057255942
40	0x3d62f9fe	0.055414192
41	0x3da35d55	0.07976786
42	0xbd191e7c	-0.037382588
43	0xbcdca415	-0.02693371
44	0xbd6a18c4	-0.057152525
45	0x3c8ccce5	0.017187545
46	0xbd9b010d	-0.0756856
47	0x3c9ed058	0.019386455
48	0x3d75a281	0.05996943
49	0x3b8605f9	0.0040900675
50	0x3d89c432	0.067268744
51	0x3d6c304c	0.057663247
52	0x3d4cfc76	0.050045453
53	0xbcfe5148	-0.031044617
54	0xbda4d7a7	-0.08048945
55	0x3da108c9	0.07863004
56	0xbd334fc4	-0.043777242
57	0xbc9f4ff3	-0.019447302
58	0x3d92e24b	0.07172068
59	0xbd09253a	-0.033482768
60	0x3cdba0c4	0.026810057
61	0x3cb714e8	0.022348836
62	0xbd30d496	-0.043171488
63	0x3c52b50d	0.012860549
64	0xbcfe03b5	-0.031007627
65	0xbcb9ca69	-0.022679524
66	0x3dc3764e	0.09544049
67	0x3da03d20	0.07824159
68	0xbd79e5d4	-0.061010197
69	0x3d5fb182	0.054612644
70	0x3c8a8081	0.016906979
71	0xbd38ff62	-0.045165427
72	0xbce03795	-0.027370254
73	0x3d54b65c	0.051931724
74	0xbc66b59f	-0.014081388
75	0xbce0674b	-0.027393004
76	0xbd8dea34	-0.06929436
77	0x3dd399c1	0.103320606
78	0xbd6194f9	-0.055073712
79	0x3c60677a	0.013696546
80	0xbd7905ae	-0.060796432
81	0x3cefb614	0.029261626
82	0xbc92e5d9	-0.017931866
83	0x3cb3ea9b	0.021962455

fc3.weight f4 [10, 84]
0	0x3c14ac33	0.009074259
1	0x3d8976f0	0.06712139
2	0x3e314530	0.17311549
3	0x3cf15aba	0.029462207
4	0xbe5047a1	-0.20339824
5	0xbbcc5ec2	-0.006236882
6	0xbeb7159e	-0.3575868
7	0xbd8d86f5	-0.06910507
8	0x3e372840	0.17886448
9	0x3f072222	0.5278646
10	0xbe866824	-0.26251328
11	0x3e90c72b	0.28276953
12	0xbe0557dd	-0.13021798
13	0xbdcbcd94	-0.0995132
14	0x3e7c8187	0.24658786
15	0x3e87baae	0.26509613
16	0xbe80e96f	-0.25178096
17	0xbdf84c4e	-0.12123929
18	0x3e7b77ef	0.2455747
19	0xbe657f4d	-0.22411843
20	0xbe1e33b0	-0.15449405
21	0xbe79dca5	-0.24400575
22	0xbdfca0c0	-0.12335348
23	0xbe355238	-0.17707145
24	0x3c3f248c	0.011666428
25	0xbd80736a	-0.062720135
26	0xbd801fd2	-0.06256069
27	0xbe322faa	-0.17400995
28	0xbe4104e8	-0.18849528
29	0xbe569ad3	-0.20957498
30	0x3e7459f0	0.23862433
31	0xbdc8a633	-0.09797325
32	0xbdfd6fa2	-0.12374808
33	0x3c8e3f59	0.01736419
34	0x3b9b5c41	0.004741222
35	0xbdb214ff	-0.08695411
36	0x3e2b9571	0.16756226
37	0x3e6b5474	0.22981435
38	0x3e8d0eeb	0.27550444
39	0xbe56d78f	-0.20980667
40	0x3cdf8fbb	0.027290216
41	0xbe65ab6c	-0.22428674
42	0x3e06e901	0.13174821
43	0xbe1635ff	-0.14669035
44	0xbe4394c0	-0.19099712
45	0xbd911028	-0.0708316
46	0x3e2e41a3	0.17017226
47	0x3e4a64a4	0.19764954
48	0x3d720719	0.0590888
49	0xbe3de514	-0.18544418
50	0xbe3466ba	-0.17617312
51	0x3d09c700	0.033637047
52	0x3bf8d420	0.0075936466
53	0x3e5d7d8c	0.21629924
54	0x3e6f15a5	0.233481
55	0xbb32c794	-0.0027279602
56	0xbd91871f	-0.071058504
57	0xbd185a63	-0.037195574
58	0x3d885161	0.06656147
59	0xbe162c04	-0.14665228
60	0x3eabd399	0.33559874
61	0xbd386783	-0.04502059
62	0x3d00bddc	0.031431064
63	0x3e716ecd	0.23577423
64	0x3d57f440	0.05272317
65	0x3c978eca	0.018500704
66	0xbe2d1f5e	-0.16906497
67	0x3e95b116	0.29236668
68	0xbc33b0ed	-0.010967475
69	0xbe48f342	-0.19624045
70	0x3d42a503	0.04752065
71	0xbdfe0fe1	-0.124053724
72	0x3cee88ce	0.029117968
73	0x3e0ac891	0.13553073
74	0xbc692b73	-0.0142315505
75	0x3cc988c3	0.024601346
76	0xbd99a43a	-0.07502027
77	0xbe3721f7	-0.1788405
78	0x3da57268	0.08078462
79	0xbe420c73	-0.18950062
80	0x3e0aa1af	0.1353824
81	0xbdf7e723	-0.12104633
82	0xbe00d8ba	-0.12582675
83	0x3c54a2e6	0.012978291
84	0x3e520a7e	0.20511815
85	0x3e528d90	0.20561814
86	0xbdf61d18	-0.12017268
87	0xbe0af960	-0.13571692
88	0xbdb1d109	-0.086824484
89	0x3e9805f2	0.29692036
90	0xbcc8a188	-0.024491087
91	0xbd420804	-0.047370926
92	0x3e85d1c1	0.26136592
93	0x3d2b8e9f	0.04188406
94	0xbcbc7f49	-0.023009913
95	0xbdb60113	-0.08886924
96	0xbc7d5cbd	-0.015464005
97	0xbb9ef361	-0.0048507904
98	0xbdb8989d	-0.09013484
99	0xbe2fe5d8	-0.17177522
100	0x3dece660	0.11567378
101	0x3e15f84a	0.14645496
102	0xbd9cb58d	-0.076518156
103	0xbce57438	-0.028009519
104	0x3db09bcb	0.08623465
105	0xbe19da9d	-0.150248
106	0x3ca537b4	0.020168163
107	0x3e60a050	0.21936154
108	0x3d78016b	0.060548227
109	0xbde1575e	-0.11002992
110	0xbe0e5624	-0.13900048
111	0xbdf97368	-0.12180215
112	0x3ebec03b	0.37256035
113	0xbca489dd	-0.02008527
114	0x3dfde99e	0.123980746
115	0x3e478393	0.19483785
116	0xbe11a9f7	-0.14224993
117	0x3d59cfaf	0.053176578
118	0xbde0b3a3	-0.10971763
119	0xbe2fb08e	-0.17157194
120	0xbd3fd556	-0.046834312
121	0xbe690049	-0.22754015
122	0xbd5cd56d	-0.053914476
123	0xbe86b68a	-0.2631114
124	0xbda089a1	-0.07838751
125	0x3c32cfd3	0.010913807
126	0xbe1e6aa7	-0.15470372
127	0xbd4fa627	-0.050695565
128	0x3ea0c299	0.31398466
129	0xbdae3496	-0.08506124
130	0x3c3247ca	0.010881374
131	0xbe46c665	-0.19411619
132	0xbc307991	-0.010771171
133	0xbe7a301c	-0.24432415
134	0x3e7016cb	0.23446195
135	0x3e58a93f	0.21158312
136	0x3d25d087	0.04048207
137	0xbcc62ab3	-0.024190282
138	0x3cb5cca3	0.022192305
139	0xbe0032d6	-0.12519392
140	0x3a750d4a	0.00093479885
141	0x3e5722f6	0.2100943
142	0xbe51473c	-0.2043733
143	0xbd8d15c5	-0.06888918
144	0x3dfb9fe1	0.12286354
145	0x3daf1a60	0.085499525
146	0x3e9cece1	0.30649474
147	0x3d84cd9b	0.06484529
148	0x3dafb0f5	0.08578674
149	0xbe2eb26e	-0.17060253
150	0x3eac9205	0.33705154
151	0xbdb6f2b6	-0.08933012
152	0xbddfc292	-0.10925783
153	0xbc3993fe	-0.011326788
154	0x3dc69493	0.09696307
155	0x3e16817c	0.14697832
156	0x3d3955e9	0.045247946
157	0x3e714f2a	0.23565355
158	0x3c77b88a	0.015119681
159	0x3d570155	0.052491505
160	0x3e47129b	0.19440691
161	0x3d87b3a0	0.066260576
162	0xbd5c53e1	-0.05379093
163	0xbd29cd47	-0.041455533
164	0xbe30826d	-0.17237253
165	0xbe032adc	-0.12809318
166	0x3d5f8ef9	0.05457971
167	0xbde88470	-0.113533854
168	0xbdf6ddbd	-0.12054012
169	0xbcd06182	-0.02543712
170	0xbe27e24d	-0.1639492
171	0xbe702587	-0.23451816
172	0xbe53fc2b	-0.20701663
173	0xbe38ffe8	-0.1806637
174	0x3de1b96f	0.11021697
175	0x3dea1576	0.114298746
176	0x3d8e5b02	0.06950952
177	0xbe888a82	-0.26668173
178	0xbe3ad99a	-0.18247071
179	0xbe45999a	-0.19296876
180	0xbeaf5cb1	-0.34250405
181	0x3d81269f	0.063061945
182	0x3e2100a6	0.15722904
183	0x3edff3c2	0.4374066
184	0x3d21f166	0.039536856
185	0xbcde519b	-0.027138522
186	0x3d2eba35	0.04265805
187	0x3ece3785	0.40276733
188	0x3d943531	0.07236708
189	0xbd9d3a9d	-0.07677195
190	0x3e655f27	0.22399579
191	0x3dbe56b5	0.09293882
192	0x3df1f196	0.11813657
193	0x3e3ea0d0	0.18616033
194	0x3dad0502	0.08448221
195	0xbe5be3cf	-0.21473621
196	0xbee05a33	-0.43818817
197	0xbee6056d	-0.44926015
198	0xbda51bd0	-0.080619454
199	0x3d8d24d5	0.06891791
200	0x3d12604f	0.03573638
201	0x3e4f0af4	0.20219022
202	0x3d92d545	0.07169584
203	0xbe08a602	-0.13344577
204	0x3e2a9fcc	0.1666252
205	0xbe20da21	-0.1570821
206	0x3c84ee6c	0.01622697
207	0x3e0cc961	0.13748695
208	0x3e23ef5a	0.16009274
209	0x3e5c3dfc	0.2150802
210	0x3e89e835	0.26934972
211	0xbcfdc2f5	-0.030976752
212	0xbe4eea36	-0.20206532
213	0x3e1a6e63	0.15081172
214	0x3d4bde90	0.0497728
215	0x3edac57c	0.42728794
216	0x3ea26c3e	0.31723207
217	0xbdd9cc30	-0.10634649
218	0xbe16344a	-0.14668384
219	0xbdb1d83c	-0.086838216
220	0x3c4d4c61	0.012530417
221	0xbe59bf8f	-0.2126448
222	0xbdaccbc3	-0.08437302
223	0x3cde6cbe	0.027151462
224	0x3ea3ee6b	0.32017836
225	0x3e0c488f	0.13699554
226	0x3dac22dc	0.084050864
227	0xbde8a17c	-0.11358926
228	0xbde503c5	-0.111823596
229	0xbe17f8a4	-0.14840943
230	0x3cff52f5	0.031167487
231	0x3e9d01b3	0.3066536
232	0xbc3a5e7a	-0.011375064
233	0x3ebd30bd	0.36951247
234	0x3e79c12e	0.24390098
235	0xbe1e245c	-0.15443558
236	0xbe72d0f0	-0.23712516
237	0xbd467089	-0.048447166
238	0x3dbead91	0.09310449
239	0xbe8e2962	-0.27765948
240	0xbdc13d33	-0.09435501
241	0x3e5e5d24	0.21715218
242	0xbd32e9ce	-0.043680005
243	0xbdff2991	-0.124591
244	0x3e052c05	0.13005073
245	0x3e3d0729	0.18459763
246	0x3d85de7b	0.065365754
247	0xbe50629e	-0.2035012
248	0xbd70aa64	-0.058756247
249	0x3e02c78e	0.12771437
250	0x3ea6e316	0.32595128
251	0xbe0f3db7	-0.13988386
252	0xbea3d340	-0.31997108
253	0xbe24d430	-0.16096568
254	0x3e22c049	0.15893663
255	0x3d3fcc0a	0.046825446

fc3.bias f4 [10]
0	0x3bffca22	0.0078060785
1	0x3a114ac2	0.0005542451
2	0xbde92527	-0.11384039
3	0xbdb484ab	-0.08814367
4	0xbd8c6702	-0.06855585
5	0xbd838f3c	-0.06423804
6	0xbe0575f8	-0.13033283
7	0xbdabb135	-0.08383409
8	0x3e8a9e39	0.2707384
9	0x3de81542	0.113321796
